data.pth (torch, 12607 bytes, 6 tensors)

l1.weight f4 [8, 193]
000000 6a 91 57 3e 3b 91 df 3d 0a bb 9a 3d 12 02 3a 3f
       0.21051565 0.109163724 0.07555206 0.7265941
000010 eb 43 53 be 2a bb 69 3f 9c 07 b4 3f bc d0 87 3f
       -0.20631377 0.91301215 1.4064822 1.0610576
000020 c1 5c 41 3e 5f 45 80 bf a5 ae 71 bf ea 0f 60 3f
       0.18883039 -1.002117 -0.9440711 0.8752428
000030 93 d5 3c bf b7 22 c5 3d 42 10 f1 3e a3 a9 2a 3f
       -0.7376339 0.09625762 0.47082716 0.66665095
000040 e9 78 03 3e d6 89 e2 3d 84 20 72 3d 19 ff aa 3e
       0.12839092 0.11061446 0.05911304 0.3339775
000050 12 12 4e 3e 56 4c 0e 3e 64 5d 91 be c3 35 40 bf
       0.20124081 0.13896307 -0.28391564 -0.75082034
000060 9f 44 e4 3d 96 d3 25 bf 2c 23 38 3e 50 96 2d 3f
       0.11145901 -0.6477598 0.17982167 0.67807484
000070 d0 58 7f 3e 9d e4 29 bf c0 9c 05 be 45 72 c4 3e
       0.24936223 -0.6636446 -0.13048077 0.3836843
000080 49 8e 08 3f 75 34 83 bf bc 5d 60 3f 1a 39 85 be
       0.5334211 -1.0250384 0.8764303 -0.26020128
000090 26 e7 93 3f 0e b0 21 be c7 09 7a 3f eb d8 86 3f
       1.1554916 -0.15789816 0.9767117 1.0534948
0000a0 b0 74 5a 3e 2a f3 78 bf 43 e1 77 bf 27 22 46 bf
       0.21333575 -0.9724604 -0.968281 -0.7739586
0000b0 db b8 38 bf 1f 04 28 3f e7 66 85 be fc bd bf be
       -0.7215707 0.6563129 -0.2605507 -0.37449634
0000c0 75 64 cb 3e cf 67 ca be a7 48 15 3d 16 d2 d8 3e
       0.3972508 -0.39532325 0.03644624 0.42347783
0000d0 49 5b 91 bf 3a e4 80 bf 0d bb 33 3e ea b3 69 3e
       -1.1355983 -1.0069649 0.17551823 0.22822538
0000e0 4b 96 53 3e e4 58 41 be 4c 07 da bd 93 46 cc be
       0.20662801 -0.18881565 -0.10645923 -0.39897594
0000f0 48 47 40 bf f4 c5 11 3f cd d2 a9 3e 4d 77 d8 be
       -0.75108767 0.5694268 0.3316864 -0.4227852
000100 5f 9a 34 bf 00 7b 5a bf c4 e6 48 bf 7c 02 56 3e
       -0.7054805 -0.85343933 -0.7847712 0.20899385
000110 ff fb 49 bf 2e e6 4c bf f2 c7 fc 3e d9 96 a6 3c
       -0.7890014 -0.80038726 0.49371296 0.020335602
000120 87 82 a5 3e 94 75 ba 3e 10 4c 3b 3e 89 a4 9b be
       0.32326147 0.3641783 0.18290734 -0.30398968
000130 a2 fc 3a be b9 e6 86 3e 01 0a 35 3e 08 8d 01 3f
       -0.18260434 0.26347902 0.17679597 0.5060582
000140 f8 26 21 be 0e ca b1 3e 12 7f 65 be 75 19 5f 3e
       -0.15737522 0.34724468 -0.22411755 0.21787055
000150 ac 59 42 bf 54 93 7e 3e be 2a b5 3d b7 5f 3c 3e
       -0.7591808 0.24860889 0.08846043 0.18395887
000160 18 58 58 be 57 53 75 3f 6b 67 b9 be 45 48 7e bf
       -0.21127355 0.9583029 -0.36211714 -0.99329025
000170 28 a4 69 bf 2d 1e 49 be ac c4 27 3e 55 20 78 3e
       -0.9126611 -0.19640417 0.16383618 0.24231084
000180 af 5c b2 be 1e 23 8c be d7 1c 50 bf 01 e0 e2 3e
       -0.34836337 -0.27370542 -0.81294006 0.44311526
000190 fb ee d9 3d 4f cd c4 be 96 bb 13 3f 7c 0c bf be
       0.10641285 -0.38437888 0.5770811 -0.37314212
0001a0 bd ce 2a 3e 45 4a d2 bd 54 09 23 3e 0f 8d dd 3e
       0.16680427 -0.10268072 0.15921527 0.43271682
0001b0 fb b6 ab 3f 80 01 7a be 9c f6 e9 3e fd d1 86 bd
       1.3415216 -0.24414635 0.4569596 -0.06583021
0001c0 5d fc 1d 3e 5f 48 fa bc e7 a5 57 3e eb bf 94 3f
       0.154283 -0.030552087 0.2105938 1.1621069
0001d0 60 2a 8b 3c 18 d4 97 3f 81 15 b4 be e1 b9 cd 3e
       0.01698798 1.1861601 -0.35172656 0.40180877
0001e0 eb a0 22 bf 70 a9 84 bf 96 63 d0 3e 22 5c 07 bf
       -0.6352679 -1.0364208 0.40700978 -0.5287496
0001f0 bc af e2 3d 2f 6f 41 bf 0d 61 a3 3e e0 69 91 3d
       0.11068675 -0.7556028 0.3190998 0.07100272
000200 6b 48 08 3f aa 4a d5 3e 91 7f e6 3e 69 a6 88 3e
       0.532355 0.41658527 0.450192 0.2668946
000210 ff 82 0b 3f 7d 57 cc 3e ef 0e 3f bf 5d db e8 3e
       0.5449676 0.39910498 -0.7463216 0.4547986
000220 22 ae dc be 94 82 0c 3f 6e 2c 81 3f ef d6 8a 3f
       -0.43101603 0.54886746 1.0091684 1.0846843
000230 40 8e 33 3e 27 19 77 bf 13 19 5e 3f 70 ac 3d bf
       0.17534733 -0.96522754 0.8675701 -0.74091244
000240 49 5a 7b 3e 89 88 38 3e 25 bc d2 3d c4 85 68 3e
       0.2454616 0.18020834 0.10289792 0.22707278
000250 54 b3 f3 3e 0e 71 00 bf 6d 16 2a 3f 60 94 d5 3d
       0.47597754 -0.5017251 0.6644047 0.10428691
000260 fb d2 36 bf 9d ac 6e 3e 35 44 9b 3f 96 0e bc bf
       -0.7141568 0.23308034 1.213019 -1.4691951
000270 65 75 f1 3d 07 06 fe be 2c 38 54 be 75 d1 46 be
       0.11789969 -0.49613973 -0.20724553 -0.19415839
000280 3e 30 0e 3f c5 68 f3 3e db 76 9c 3e 4b 29 97 3e
       0.5554236 0.4754087 0.3055943 0.29523692
000290 7f 2f ad 3e 12 52 a7 3f f8 15 dc bd bb 1e 0e 3f
       0.338253 1.3071921 -0.10746378 0.5551564
0002a0 dc eb 14 3e f9 70 c9 3e 2f 61 bd 3e 55 2f 0c be
       0.14543098 0.39344004 0.36988208 -0.1368993
0002b0 f8 27 7e 3e c9 d7 38 3e 9a 2a f8 3e 8f 29 81 3e
       0.24819934 0.18051066 0.48470002 0.2522702
0002c0 b5 04 67 be 13 5e 70 3f 85 bc 41 bf 8b c4 97 3d
       -0.2256039 0.93893546 -0.7567828 0.074105345
0002d0 88 db 8d 3e b5 fc c2 be 9b 50 74 3f c6 80 58 3e
       0.27706552 -0.38083425 0.95435494 0.21142873
0002e0 2d af 86 3e b1 0c 2f 3f 45 06 53 3f 14 ce 3d 3f
       0.26305524 0.6837874 0.8243144 0.74142575
0002f0 a7 d3 08 bf 09 76 c8 3e ad 50 63 3e 6e af 13 3f
       -0.53447956 0.39152554 0.22198744 0.5768956
000300 b7 6d 11 3e 2e 41 de 3e 73 18 0c 3f f9 93 b8 bd
       0.14202009 0.43409103 0.54724807 -0.090125985
000310 d2 fd 54 bf 70 36 81 3f 74 c4 2c bf e2 46 40 bf
       -0.831998 1.0094738 -0.67487264 -0.7510816
000320 0d 27 17 bf be 78 49 bf 6c c0 05 bd b9 32 f8 3e
       -0.5904396 -0.7869986 -0.03265421 0.48476198
000330 50 59 16 3f e9 12 19 3f 7f 0b 50 bd 31 22 98 bf
       0.5873003 0.5979448 -0.050792214 -1.1885434
000340 6b ee 92 3f 76 50 10 3f 2a 1a 2f be ec 10 16 3e
       1.1479009 0.56372774 -0.17099825 0.14654893
000350 ce 46 11 be ff be 97 3e d5 90 87 bd f2 d8 8e 3e
       -0.14187166 0.29637906 -0.066194214 0.2789989
000360 56 ef 10 3f bf e9 5d bc 41 83 8a 3e 2e 8d e3 be
       0.566152 -0.013544499 0.27053264 -0.4444365
000370 27 bd 34 3f ee d8 2b 3f 7e 0f a4 3e 1e a3 1d bf
       0.70601124 0.67127883 0.3204307 -0.6157702
000380 92 84 96 3e c5 a4 eb 3e de 39 da bc d1 10 1e 3f
       0.29398018 0.46024147 -0.026638921 0.6174441
000390 69 78 bb bd 52 6f 8f be 00 c9 80 3f 71 57 19 bf
       -0.09153826 -0.28014618 1.006134 -0.5989905
0003a0 76 e2 1c bf 25 05 40 bf 9a 46 fb 3e dd 26 ec 3d
       -0.6128305 -0.7500785 0.49077302 0.1153085
0003b0 37 3f 6c 3f 5f bf 33 3f f8 a5 6f bd 3e ff c9 3e
       0.9228396 0.70213884 -0.05850789 0.39452547
0003c0 b4 20 92 3e 58 f3 29 be f0 87 81 bd 22 15 78 3e
       0.28540576 -0.16596735 -0.06324756 0.24226812
0003d0 3a 7b 29 be 32 9d a3 3e 70 b0 ff 3e c8 78 00 3f
       -0.16550913 0.31955868 0.499393 0.501843
0003e0 24 7e 10 3f 46 18 e3 3e 02 fe 15 3f c5 ac eb 3e
       0.56442475 0.44354457 0.5859071 0.4603025
0003f0 d8 e5 dc 3e 45 c0 10 3f d7 47 fc 3d 2a 7d 6c be
       0.43144107 0.5654338 0.1231839 -0.23094621

l1.bias f4 [8]
000000 43 ab 84 3f 3d 9a ab 3f e8 07 8b 3f d0 6b 60 3f
       1.0364765 1.3406445 1.0861788 0.8766451
000010 5c 05 47 3f 8b 4f 56 3f ea a2 89 3f 52 3e 48 3f
       0.7774255 0.8371512 1.0752842 0.78220093

l2.weight f4 [8, 8]
000000 7c 9f 2e c0 b5 d7 d0 3f 62 c5 77 3f 44 93 34 bf
       -2.7284842 1.6315829 0.9678556 -0.7053721
000010 8f dd 4f 40 09 70 af 3f ab a5 d1 3f 7e c7 27 3f
       3.2478979 1.3706065 1.6378683 0.65538776
000020 9e 02 9f be e9 91 b2 be 09 58 9e be cc cc a4 3d
       -0.31056684 -0.34876946 -0.3092654 0.080468744
000030 33 ee 17 be c8 03 f8 bd 18 45 06 bd c8 47 d4 3d
       -0.1483696 -0.12110096 -0.032780737 0.10365254
000040 c8 83 da bf 12 cf 11 40 74 58 59 bf 88 fc 01 40
       -1.7071466 2.2782636 -0.84900594 2.0310383
000050 11 bc 9a bf 18 c9 0b 3f d2 bd d1 3f f5 31 ce be
       -1.2088643 0.5460372 1.6386054 -0.4027249
000060 14 ef 02 3e 16 1b a4 be b0 5d de 3f c5 83 ee 3e
       0.12786514 -0.32051915 1.7372341 0.46584907
000070 45 01 a1 bf 09 3f 42 bf 82 ac 8d 3f e8 f8 02 40
       -1.2578512 -0.75877434 1.106827 2.046442
000080 37 6b 39 3f bd 4f 15 3f e2 81 66 40 0c 8a ef bf
       0.7242922 0.58324796 3.6016774 -1.8714004
000090 a9 44 65 3f 88 1e f8 3e 25 87 ad bf 25 0c 07 40
       0.8955789 0.48460793 -1.3556868 2.1101162
0000a0 e3 f6 10 3f 1f 5a d7 3f bf 75 bd be c1 2b 05 40
       0.5662672 1.6824378 -0.37003896 2.0807955
0000b0 3a 70 ef bf 77 82 5b 3f 84 03 04 40 03 c8 61 bd
       -1.8706124 0.8574595 2.0627146 -0.055122387
0000c0 5c a4 f8 3f bc 74 aa bf 58 42 6d bf c9 39 e7 3f
       1.9425159 -1.3316875 -0.9267936 1.806451
0000d0 49 78 a9 3f 85 bc 35 40 fb f2 b0 3e 97 02 0a 40
       1.3239833 2.8396313 0.3456038 2.156408
0000e0 6b 64 fd 3f 6b 33 13 40 3b a9 1d bf 59 dd 9f 3f
       1.979627 2.3000133 -0.6158635 1.2489425
0000f0 a3 89 c9 3e 85 53 05 c0 b8 c6 ce 3f 9b 8b 9b bf
       0.3936282 -2.0832226 1.6154394 -1.2151979

l2.bias f4 [8]
000000 e7 04 cd 3e c8 53 28 bd da 98 22 3f bf 4d ae be
       0.40042803 -0.041095525 0.6351448 -0.3404369
000010 09 06 9e 3f d7 be 12 3f 17 13 e3 bb 34 7c 40 3f
       1.2345592 0.5732245 -0.006929766 0.7518952

l3.weight f4 [20, 8]
000000 81 92 96 3e c8 a7 8b 3d 14 a1 4b bf 88 65 8a 3f
       0.2940865 0.06819111 -0.7954266 1.0812235
000010 3d 16 25 3f e7 57 52 bf b0 a0 bd bf bf 80 55 c0
       0.6448706 -0.8216538 -1.4814663 -3.335983
000020 a1 70 cb bf 67 66 af be 80 d4 19 bf fc 7c 42 3f
       -1.5893747 -0.34257814 -0.60089874 0.7597196
000030 84 59 3f 3f 95 45 43 c0 b2 d3 9e 3e 0a d5 e4 bf
       0.74745965 -3.051122 0.31020886 -1.7877514
000040 7e c4 c4 3e 00 7a e9 3b 09 fc 01 c0 1e 8a 03 be
       0.38431162 0.0071251392 -2.031008 -0.12845656
000050 49 ed 9b 3e ab b1 4e c0 db 54 4c 3f 2d bc 1a c0
       0.30454472 -3.229594 0.7981698 -2.4177353
000060 34 e0 7c 3e 70 83 3b 3d 13 14 ad bf ce be bf 3b
       0.24694902 0.045779645 -1.3521751 0.005851603
000070 26 8b be 3d 4a 5e 5e bf 2f f5 9f be b7 7c c7 be
       0.09303884 -0.86862624 -0.31241748 -0.38962337
000080 58 67 09 c0 7c 1e cb 3d e1 28 84 bf 22 ad 94 3f
       -2.1469326 0.09917924 -1.0324975 1.1615336
000090 07 08 82 3f e8 87 e1 bf b3 59 05 c0 5c f0 89 bf
       1.01587 -1.76196 -2.0835998 -1.0776477
0000a0 5d c1 01 be c0 14 52 3c 01 31 bd 3e 6d 3e 0a 3f
       -0.12671418 0.01282233 0.3695145 0.54001504
0000b0 7d 78 f4 be 93 f9 46 3e 9d 9f 50 c0 60 26 1d 3e
       -0.47748175 0.19431143 -3.259742 0.1534667
0000c0 d8 4e a0 3e 13 00 9b 3e f5 e8 ef 3e bb 8f 34 c0
       0.31310153 0.30273494 0.4685742 -2.8212726
0000d0 5f 96 b0 bf 66 08 c3 be e2 7e 48 3e 23 b6 66 be
       -1.379589 -0.38092345 0.19579652 -0.22530417
0000e0 b1 88 70 3f 1e 8c 8d be a3 94 72 bf d9 6b 4a bf
       0.93958575 -0.27645963 -0.9475805 -0.7907081
0000f0 55 1b 32 3f 7e 56 fc bf 07 88 12 c0 b9 d5 0a bf
       0.69572955 -1.9713895 -2.2895525 -0.54232365
000100 9b 2e f3 bf 06 d0 50 be 94 a0 17 3f d3 37 01 bf
       -1.8998598 -0.20391855 0.592294 -0.50475806
000110 6e 6e 87 bf ff ff 87 3e 9b 9e 72 3f 19 aa e1 bf
       -1.0580575 0.26562497 0.9477326 -1.7630035
000120 9f 7b 87 3f 22 f6 42 3e 6f 3f 74 bd 13 b3 15 c0
       1.0584601 0.19039205 -0.059630807 -2.3390548
000130 e6 e2 e2 3e 3d a0 6c bf 62 b5 89 3b fb fb 5d c0
       0.44313735 -0.92432004 0.0042025307 -3.4685047
000140 ce 30 c4 bf 3a 72 a7 be e6 aa 50 bf e8 7a c4 bd
       -1.5327394 -0.32704335 -0.8151077 -0.09593755
000150 5e 17 2c 3f 2a 75 13 bc fd c0 35 c0 66 49 4a 3f
       0.67223155 -0.009000102 -2.839904 0.7901825
000160 a8 e0 82 3f 00 42 83 3d 8c d9 ef bd ce de 37 c0
       1.022481 0.06409073 -0.11711416 -2.872974
000170 b0 e1 91 be 57 46 05 bf 5b d3 a8 bf 20 05 cf 3e
       -0.28492498 -0.52060455 -1.31895 0.40433598
000180 d4 3c 6f 3e 88 bd 11 3d 75 da 08 c0 40 f0 30 c0
       0.23363048 0.03558114 -2.1383336 -2.7646637
000190 2e 92 92 be 0d 92 a2 be dc 57 62 3f 2c ac 30 bf
       -0.2862715 -0.31752053 0.8841531 -0.69012713
0001a0 6a 7e 22 c0 ec 31 8d 3d 8a fa 5b bf 91 0b b0 3e
       -2.5389657 0.068942875 -0.8592917 0.34383824
0001b0 c1 ed ec bd 0d 15 5d bd 28 41 ca 3c 58 4d ed 3d
       -0.115687855 -0.053975154 0.024689272 0.11587018
0001c0 85 44 d6 bf 30 7a cd bc 34 13 6a be 1e 9b fa bf
       -1.673966 -0.025082678 -0.22858888 -1.9578588
0001d0 75 05 24 c0 82 b4 84 3e 14 1f ef 3e 2b fb 4d 3f
       -2.562833 0.25918967 0.46703398 0.80461377
0001e0 00 7a 3a 3e 25 c7 36 be 93 3d 1c 3f da dd fb 3c
       0.18210602 -0.17849405 0.61031455 0.030745436
0001f0 81 a8 e1 bd 22 05 00 3f 3c 98 4c bf fb 6a 14 c0
       -0.11018468 0.5000783 -0.7991979 -2.3190296
000200 dd 4e 43 bf b0 38 85 bd cb e7 f3 3e b1 05 80 3f
       -0.7629221 -0.06504953 0.47637782 1.0001737
000210 df 46 ed bf a1 f8 21 3f ee ff 31 bf 05 87 6f bd
       -1.8537253 0.6327 -0.6953114 -0.058478374
000220 36 ce 85 3f 55 e8 b1 3e a2 c1 71 3f 63 2b 97 bf
       1.0453556 0.34747568 0.94436085 -1.1810116
000230 78 e4 28 c0 33 4c bd 3e e3 ec 38 c0 1c 05 14 3f
       -2.6389446 0.36972198 -2.8894584 0.57820296
000240 65 3a 68 bf 59 d0 51 be 99 81 d8 bf 31 bb dd 3d
       -0.90714103 -0.20489635 -1.691455 0.108267196
000250 9e 30 a4 3e ae 13 34 3d 0c 2b fc 3e 1c 4e 52 c0
       0.32068342 0.04396408 0.49251592 -3.2860174
000260 0d 0c 12 c0 40 d5 a6 be b9 30 6a 3f 4f 1a 19 c0
       -2.2819855 -0.32584572 0.91480595 -2.3922307
000270 5c 4e 04 bf 68 68 48 3f 3d a8 f0 bf f9 17 64 3f
       -0.51682067 0.7828431 -1.8801342 0.8909908

l3.bias f4 [20]
000000 5e 91 25 3e 14 31 3b be 4a 4e ce be 6b ef d2 be
       0.16168734 -0.1828044 -0.40294105 -0.41198286
000010 4c 8d 9e 3e df 8a ef be be 4e 11 bf d8 a4 cc 3e
       0.30967176 -0.46785638 -0.56760776 0.39969516
000020 3c 2d 61 3e a8 db fa bc 4d 8b cd 3e 8e b6 77 be
       0.21989912 -0.030622318 0.4014534 -0.24190733
000030 22 68 94 3e b0 b9 0c 3f b4 aa 7a bc ab 8e b7 be
       0.28985697 0.54970837 -0.015299488 -0.35851035
000040 aa f8 3f be 7a 49 70 3e 6f 5a 9a bd b4 26 30 3f
       -0.18747202 0.23465529 -0.0753678 0.68809056
